app/src/main/assets/ingredients_classifier.tflite (tflite, 60391 bytes, 5 tensors)

sequential/embedding/embedding_lookup/287970 f4 [734, 16]
0	0x3cf49009	0.029853838
1	0xbdbce7ea	-0.092239216
2	0x3d9d3e98	0.076779544
3	0xbc92b286	-0.017907392
4	0xbd405aa6	-0.04696145
5	0x3d27c0e1	0.040955428
6	0x3d0e5890	0.03475243
7	0x3caaf6ac	0.020869575
8	0x3d9b9798	0.075972736
9	0xbe1d59cf	-0.1536629
10	0xbe324c50	-0.17411923
11	0x3c92120a	0.017830867
12	0x3d8bfa47	0.06834846
13	0xbc975830	-0.018474668
14	0x3c4a3a18	0.012342952
15	0x3de6051e	0.11231445
16	0x3d759a15	0.059961397
17	0xbdc4caa9	-0.09608967
18	0x3cbd1cfb	0.023085108
19	0x3bc2e42e	0.0059476113
20	0xbdaa5342	-0.083166614
21	0x3d53eeb3	0.051741313
22	0x3d8eac1c	0.06966421
23	0xbd98dbe5	-0.074638166
24	0x3b8d89d6	0.00431941
25	0xbe2f7551	-0.17134596
26	0xbe26364e	-0.16231653
27	0xbbaa002f	-0.00518801
28	0x3dd2d577	0.102946214
29	0xbca1830a	-0.019715805
30	0x3d12321f	0.03569233
31	0x3dbcffd0	0.0922848
32	0xbd45c27d	-0.04828118
33	0xbcb6c40d	-0.022310281
34	0xb975ea00	-0.00023452193
35	0xbd39166d	-0.045187403
36	0xbce59e5a	-0.02802961
37	0xba5564c0	-0.0008140318
38	0x3c558474	0.013032068
39	0xbc306a4c	-0.010767531
40	0x3d2bdbe9	0.04195777
41	0x3d3b2a53	0.04569466
42	0x3ca39226	0.01996715
43	0x3d152039	0.036407683
44	0x3b7ab930	0.0038257353
45	0x3cc6d02e	0.02426919
46	0x3c9a08da	0.018803049
47	0x3d1c8b73	0.038218927
48	0xc0c26f34	-6.0760746
49	0x41352774	11.322132
50	0x410bdced	8.741437
51	0x4153d948	13.240547
52	0xc125c28c	-10.359997
53	0x41603a6f	14.014266
54	0xc12945cb	-10.579539
55	0x40f3a5ee	7.614005
56	0xbfc6a4cf	-1.5519046
57	0xc10aa0ac	-8.664227
58	0xc0da2157	-6.81657
59	0xc10ccd8b	-8.800181
60	0xc11830aa	-9.511881
61	0xc11bda25	-9.740758
62	0xc1066506	-8.399664
63	0x4108736c	8.528179
64	0x4133c9cb	11.236766
65	0xc18ce56b	-17.61202
66	0xc148bef5	-12.54662
67	0xc19e1ea9	-19.76497
68	0x418f9795	17.949015
69	0xc1ae4325	-21.782785
70	0x41d36446	26.423962
71	0xc16cc22e	-14.797407
72	0xc13bf0bd	-11.746274
73	0x41c533c8	24.650284
74	0x4104d257	8.3013525
75	0x410bb359	8.731286
76	0x416c6d58	14.776695
77	0x416d6f41	14.839662
78	0x419e6866	19.800976
79	0x4104a00e	8.289076
80	0x41033f29	8.20292
81	0x40598e3b	3.399306
82	0x40ba47fe	5.821288
83	0x402007c0	2.500473
84	0xc01a6c46	-2.4128585
85	0x403ef506	2.983705
86	0xbffba69f	-1.9660224
87	0xbf8f2f2a	-1.1186268
88	0xc0da6d80	-6.8258667
89	0xbfbe964f	-1.488962
90	0xc1191054	-9.566486
91	0xc0914322	-4.539445
92	0xc04d762f	-3.2103384
93	0xc089fc87	-4.312076
94	0xbf036935	-0.5133241
95	0x41159819	9.349633
96	0x3f144239	0.5791355
97	0xc16394f1	-14.223863
98	0xc0a1f24c	-5.0608273
99	0xc163518a	-14.207407
100	0x41351994	11.318745
101	0xc0e5bfc3	-7.1796584
102	0x411fac45	9.979558
103	0xc084228e	-4.129218
104	0x40d0ecc1	6.5289006
105	0x40b88af7	5.7669635
106	0xc09c7d10	-4.8902664
107	0x41336d61	11.214204
108	0x413d5866	11.834082
109	0x410cbc8a	8.79603
110	0x40fc5ee0	7.8865814
111	0xc032cca2	-2.7937398
112	0x40f03e74	7.5076237
113	0xbfc92cd1	-1.5716802
114	0x401ec0fa	2.4805284
115	0xc00c8144	-2.1953897
116	0x408bab09	4.3646283
117	0xbfdfdbcd	-1.7488953
118	0x4023cdd1	2.559437
119	0xc0b7daab	-5.745443
120	0x40d16e2b	6.544698
121	0x4093fe8d	4.624823
122	0xc0306722	-2.7562947
123	0xbcf62e63	-0.030051416
124	0x3f8435dd	1.0328938
125	0x3d44381f	0.047905084
126	0x40bfa938	5.9894066
127	0xbf91d829	-1.1394092
128	0xc136bdc8	-11.421333
129	0xc0a2619f	-5.0744166
130	0xc1002f80	-8.011597
131	0xc08356d9	-4.1043515
132	0x40434aa3	3.0514305
133	0xc017a1f2	-2.3692594
134	0x401dbb70	2.4645653
135	0x4047223d	3.1114647
136	0x4164f409	14.309579
137	0xbdc96178	-0.09833044
138	0x40aa90c1	5.33017
139	0x411e45bb	9.892024
140	0x409736b0	4.7254257
141	0x40cc06ae	6.3758154
142	0x3f1ca596	0.61190164
143	0xc11f5d69	-9.960305
144	0x40f7d181	7.744324
145	0xbfbcb4eb	-1.4742712
146	0x3fadcef0	1.3578777
147	0xbfdde14a	-1.7334378
148	0x405084fa	3.2581162
149	0xbfc1cb07	-1.5140084
150	0x3fee9f97	1.8642453
151	0xc081bba6	-4.0541563
152	0x4088d7c0	4.2763367
153	0x40586efe	3.3817744
154	0xbfdb39e1	-1.7127038
155	0x3eb9e8ae	0.36310333
156	0x3f86e4c2	1.0538561
157	0x3e8f0197	0.279309
158	0x405c2a1c	3.4400702
159	0x3e230b86	0.15922365
160	0xbf3992e4	-0.7248976
161	0xbfd4560c	-1.658876
162	0xbf20739b	-0.626764
163	0xbfc9002a	-1.5703175
164	0x3e7ddf22	0.2479215
165	0x3e0fcac9	0.140422
166	0x3f7ad377	0.9797892
167	0xbb808055	-0.0039215484
168	0x3fe88fe4	1.8168912
169	0xbf565d86	-0.83736455
170	0xc0461d81	-3.0955508
171	0x4002e725	2.045358
172	0x3fdd9f71	1.7314283
173	0x3fc8d1ae	1.5688989
174	0x3e647d0e	0.2231333
175	0x401179ae	2.2730517
176	0xc04b290a	-3.1743798
177	0xbfcf3749	-1.6188747
178	0x3ee3c167	0.44483492
179	0xc057165f	-3.3607404
180	0x3f9a9115	1.2075526
181	0xbf31af44	-0.6940806
182	0x3ffe21fa	1.9854119
183	0x3e8cd824	0.27508652
184	0x402d82ff	2.7111204
185	0x3e4a37bc	0.19747823
186	0xc05188ce	-3.273975
187	0x3e99dfc6	0.30053538
188	0x3f6978e5	0.91200095
189	0x3e5d51c0	0.21613216
190	0x3f13ed04	0.5778353
191	0x405a27cc	3.408679
192	0x40ab6190	5.3556595
193	0x3f6e748d	0.9314659
194	0x409111a7	4.533405
195	0xbe066784	-0.13125426
196	0xbed2b0af	-0.41150424
197	0x3fc9611b	1.5732759
198	0x3f00891a	0.502092
199	0xc01191dc	-2.2745275
200	0xc05e758c	-3.4759245
201	0x3e62e6c8	0.22158349
202	0xc0df0ee3	-6.970567
203	0xc028b1b5	-2.6358464
204	0xbf9ce75a	-1.2258103
205	0xc03bae17	-2.9325006
206	0x3faf2c0f	1.3685321
207	0x40f4ca76	7.6497145
208	0xc126b23e	-10.418516
209	0xbf817b8b	-1.0115827
210	0xc012fa24	-2.2965174
211	0xbf00299c	-0.5006349
212	0xbec3e623	-0.38261518
213	0xbce77824	-0.02825553
214	0xbf1e9956	-0.6195272
215	0x40809e77	4.019344
216	0x4114a1a6	9.289465
217	0xbfc5a011	-1.5439473
218	0x3fb4d696	1.4127986
219	0x4023284a	2.549334
220	0x3f8dbe1c	1.1073642
221	0x4014069e	2.312904
222	0xc0008ebf	-2.0087125
223	0xc055f0b7	-3.342817
224	0x3e89e789	0.2693446
225	0xc00366f9	-2.05316
226	0xbfb15d2c	-1.3856559
227	0xc02afddd	-2.6717446
228	0xbfea7e10	-1.8319721
229	0xbfa5667a	-1.2921898
230	0x4056115d	3.3448098
231	0xc05cae4e	-3.4481387
232	0xc0e2e81b	-7.090833
233	0xbfefe4cc	-1.8741698
234	0xbf4624e1	-0.7740002
235	0x3fbf7ad3	1.4959358
236	0x3f07137b	0.527641
237	0x3fff58cc	1.9948974
238	0x3f95d85b	1.1706651
239	0x3fb35a9d	1.4012028
240	0x3f87a79d	1.0598027
241	0xc048b1e7	-3.1358583
242	0xc04e01fe	-3.2188716
243	0xc0168be9	-2.3522894
244	0x402cbe16	2.699102
245	0xc00c5381	-2.1925967
246	0x3fcc21c4	1.5947804
247	0xbfb73344	-1.431252
248	0x40433f23	3.0507286
249	0x3fe8b7b8	1.8181067
250	0x406fd2fb	3.7472522
251	0x4058dc0d	3.3884308
252	0x404eea16	3.2330375
253	0x40523d7b	3.2850025
254	0x3fd3f023	1.6557659
255	0xc093933a	-4.611722

sequential/dense_1/BiasAdd/ReadVariableOp/resource f4 [13]
0	0x3e439c94	0.19102699
1	0x3f19a2b6	0.600139
2	0x3de42eb0	0.111417174
3	0xc0067ccb	-2.1013668
4	0xc05f0f00	-3.4852905
5	0x3f9abde4	1.20892
6	0x3de36737	0.11103671
7	0xc0a50c90	-5.1577835
8	0x3f7a9fd6	0.9790014
9	0xbebea31b	-0.37233815
10	0xc04bf701	-3.186951
11	0x3f690f07	0.91038555
12	0xbf80b6f4	-1.0055833

sequential/dense/BiasAdd/ReadVariableOp/resource f4 [16]
0	0xbd7e8561	-0.06213892
1	0xbdb7ddf9	-0.08977885
2	0xbe0031c7	-0.12518989
3	0x00000000	0.0
4	0x3e668908	0.22513211
5	0x3e433bd6	0.19065794
6	0xbe337bbd	-0.17527671
7	0xbec3864a	-0.38188392
8	0x3ecee840	0.40411568
9	0xbdfbb629	-0.12290604
10	0xbd951ebd	-0.072812535
11	0x3e5cb0d3	0.21551828
12	0x00000000	0.0
13	0xbd5a313e	-0.053269617
14	0xbdde91ba	-0.10867639
15	0x3e82e87f	0.25568005

sequential/dense/MatMul f4 [16, 16]
0	0xbeb10570	-0.3457446
1	0x3eabad75	0.33530775
2	0x3e0c0440	0.13673496
3	0x3c82e28a	0.015977163
4	0x3ef5d99c	0.48017585
5	0x3eacad38	0.33725905
6	0x3e7f2578	0.24916637
7	0xbe51bbc3	-0.20481782
8	0xbde176b6	-0.110089704
9	0xbe9c67e1	-0.30548003
10	0x3ee54225	0.44777027
11	0xbec257df	-0.37957665
12	0xbe81d59b	-0.2535828
13	0xbec9b2cf	-0.39394233
14	0xbeb5fb5b	-0.35543332
15	0x3e95d073	0.29260597
16	0x418a5dad	17.29574
17	0x40381e31	2.8768427
18	0x400f400c	2.238284
19	0xbf28afd6	-0.65893304
20	0x3d11c00b	0.035583537
21	0x3f854077	1.0410298
22	0x40728d65	3.78988
23	0xc0b55e4c	-5.667761
24	0xc02bb3de	-2.6828532
25	0x3f3db792	0.7410823
26	0xbfbd95dc	-1.4811358
27	0xc0a83a14	-5.2570896
28	0xc02dfdec	-2.7186232
29	0xc0167089	-2.3506186
30	0x41306528	11.024696
31	0x3f7677b7	0.9627642
32	0x410cc652	8.798418
33	0xc0c5f89f	-6.1865993
34	0xbf80a679	-1.0050803
35	0xc0270ad9	-2.610037
36	0x401e9162	2.4776235
37	0xc108a74c	-8.540844
38	0x41787c22	15.530306
39	0xc0c508d9	-6.15733
40	0xbfea7890	-1.8318043
41	0x4018b3e0	2.3859787
42	0x3ddd79f9	0.1081428
43	0x3f9f136d	1.2427803
44	0x402ffb1d	2.7497017
45	0x3f735842	0.95056546
46	0x41afbfd6	21.96867
47	0x3f42a589	0.76033837
48	0x3ecb45f7	0.39701816
49	0x3ec0318b	0.37537798
50	0xbc9e0cb0	-0.01929316
51	0xbdc9354c	-0.09824619
52	0x3c0804c0	0.008301914
53	0xbe84d515	-0.2594382
54	0xbe973942	-0.29535872
55	0xbe032b30	-0.12809443
56	0xbd8947d8	-0.06703156
57	0xbdd59ae8	-0.10429937
58	0x3d70e940	0.058816195
59	0x3e3cd65a	0.18441144
60	0xbda24d14	-0.07924858
61	0x3dc81dcc	0.09771308
62	0xbea9bee2	-0.33153445
63	0xbe10caba	-0.14139834
64	0x3fa55e0e	1.2919328
65	0x40b869c2	5.76291
66	0x40558b36	3.3366218
67	0x4028ec3d	2.6394188
68	0xc071f221	-3.7804034
69	0x4143ecc6	12.245306
70	0xc10fd027	-8.988318
71	0x3fff1b0b	1.9930128
72	0xbfda6ae8	-1.7063875
73	0xc03bb1bb	-2.9327228
74	0xbfba31cf	-1.454645
75	0xc0ae4dc5	-5.4469934
76	0xc080145e	-4.002486
77	0xc0489094	-3.1338243
78	0xc178b726	-15.544714
79	0x3fa05ce3	1.2528347
80	0xc17d754f	-15.84114
81	0xc0da18d3	-6.8155303
82	0xc05aace7	-3.4168031
83	0xc00cc914	-2.1997728
84	0x3fd0ccd1	1.6312505
85	0xc0b04649	-5.5085797
86	0x3f91e908	1.139924
87	0x40b58d06	5.673465
88	0x407d3b54	3.956746
89	0xbe0e2580	-0.13881493
90	0x3f1140d1	0.56739527
91	0x411eb328	9.918739
92	0x40c96a92	6.294259
93	0x40ced475	6.4634347
94	0xc12db0cf	-10.855666
95	0xbf95f08e	-1.1714036
96	0x40ddc5a8	6.930378
97	0xc0f850ea	-7.759877
98	0xbff87fc4	-1.9413991
99	0xc0694d57	-3.6453454
100	0x40429e14	3.0408983
101	0xc1151ab9	-9.319024
102	0x41824618	16.284225
103	0xc0af0b19	-5.4701047
104	0xbf6f1fda	-0.93407977
105	0x402c8dba	2.6961503
106	0x3e6ac8a0	0.22928095
107	0x409e8647	4.9538913
108	0x40906c70	4.513237
109	0x404fca3b	3.2467182
110	0x41a4fa8c	20.622337
111	0x3efafa03	0.4901887
112	0x41593491	13.575334
113	0x40cafd0b	6.343389
114	0x40aec3fa	5.461423
115	0x404b23ce	3.1740603
116	0x3f461517	0.7737593
117	0x41496ccb	12.589061
118	0xc113becd	-9.234082
119	0x3f82555c	1.01823
120	0x3f7b0117	0.9804854
121	0x3f5d450f	0.864335
122	0xc0026264	-2.0372553
123	0xc1092e67	-8.573829
124	0xc07c0d65	-3.9383175
125	0xc106ac0e	-8.417006
126	0xbf952353	-1.1651405
127	0x3fc75a55	1.5574442
128	0xc105f7a1	-8.372956
129	0x4094fa88	4.6555824
130	0x3f9ad39a	1.2095826
131	0x3ffb626e	1.9639413
132	0xc06cd496	-3.7004752
133	0x4135b999	11.357812
134	0xc0fe261a	-7.942151
135	0x40b505f4	5.6569767
136	0xbe2a4601	-0.16628267
137	0xc049468f	-3.1449316
138	0xbf515792	-0.81774247
139	0xc06c18f6	-3.6890235
140	0xc04b5e33	-3.1776245
141	0xc0292786	-2.6430373
142	0xc17d5bd2	-15.834917
143	0x3fabc4f0	1.3419476
144	0x418fab5b	17.95867
145	0x403676a3	2.850991
146	0x4032dbfa	2.7946763
147	0xbcf2c922	-0.029636923
148	0x3ed303bb	0.41213784
149	0x3face60f	1.3507708
150	0x3fd34a62	1.6507075
151	0xc0a20f9f	-5.064407
152	0xc014ae6a	-2.3231454
153	0x3f68abfc	0.9088743
154	0xbfb1d2f3	-1.3892502
155	0xc0b7740f	-5.7329173
156	0xc057b7c0	-3.3705902
157	0xc0460377	-3.0939615
158	0x410a1f69	8.6326685
159	0x3f720fb3	0.94555205
160	0x3eb0d3cc	0.34536588
161	0x3e072f65	0.13201673
162	0xbea869df	-0.32893273
163	0xbe2b9291	-0.1675513
164	0xbe2f2815	-0.17105134
165	0xbdf19d69	-0.11797602
166	0x3d9b191c	0.075731486
167	0xbed4db6a	-0.4157365
168	0xbe01aa98	-0.12662733
169	0x3ec20ebf	0.37901875
170	0xbe2cae1e	-0.16863295
171	0xbe926023	-0.28588971
172	0xbed88b0d	-0.42293587
173	0xbeca2203	-0.39479074
174	0xbd3ab4fa	-0.04558275
175	0x3e02e38e	0.12782118
176	0xc19298f8	-18.324692
177	0xbff3eef1	-1.9057294
178	0xc057400a	-3.3632836
179	0xbe9260be	-0.28589433
180	0xbfa070cf	-1.2534426
181	0x4083350f	4.100227
182	0xc0895bb6	-4.292445
183	0x410bbedc	8.734097
184	0x40895ebb	4.292814
185	0xc00f4ea8	-2.2391758
186	0x3f8274b9	1.0191871
187	0x40d66e1f	6.7009425
188	0x4012dd7d	2.2947686
189	0x40819464	4.049364
190	0xc15badf7	-13.729972
191	0xbfd15c36	-1.6356266
192	0x3e2047be	0.15652367
193	0x3e98eae5	0.2986671
194	0xbe66e606	-0.22548684
195	0xbd613940	-0.05498624
196	0x3ebb576f	0.36590144
197	0xbeadc5a8	-0.33939862
198	0x3ea2610f	0.31714675
199	0x3da5afd4	0.08090177
200	0x3cf736c0	0.030177474
201	0x3e827f41	0.25487712
202	0x3de6a984	0.11262801
203	0xbeab055c	-0.33402526
204	0xbec0f960	-0.37690258
205	0xbe32c8b6	-0.17459378
206	0x3e3af1ba	0.18256274
207	0xbddee6d8	-0.10883874
208	0xc11acf08	-9.675545
209	0xc1282bd5	-10.510701
210	0xc087d2c8	-4.24448
211	0xc085757c	-4.1705914
212	0x400619d3	2.0953262
213	0xc10eb9e5	-8.920384
214	0x4120a803	10.0410185
215	0x3fc93c98	1.5721617
216	0x3fa9f74e	1.3278596
217	0x3f3cc8e8	0.7374406
218	0x3f936b38	1.1517096
219	0x4139df6c	11.617046
220	0x40e0eb0b	7.028692
221	0x41105287	9.020148
222	0x402bfdb0	2.6873589
223	0xbf022f91	-0.5085383
224	0x40351541	2.8294222
225	0x40cbf109	6.373173
226	0x40870543	4.2193923
227	0x403bf541	2.936844
228	0xc04e7330	-3.2257805
229	0x4180c1b4	16.094582
230	0xc11112d7	-9.0671
231	0x3fedbb5b	1.8572801
232	0xbec81003	-0.39074716
233	0xc02a9bc4	-2.6657572
234	0xc00cec67	-2.2019289
235	0xc0cde3dd	-6.4340653
236	0xc0962ace	-4.692725
237	0xc0b75504	-5.729128
238	0xc15b8faf	-13.722579
239	0x3fe2b5f1	1.7711774
240	0x40809a7c	4.018858
241	0xbfa325d2	-1.2745917
242	0xbfee18ca	-1.8601315
243	0xbf5119af	-0.81679815
244	0xbe9dd5fc	-0.3082732
245	0xc0e17dca	-7.046605
246	0x4050a9db	3.2603672
247	0xbfedbd7c	-1.8573451
248	0xc027b14a	-2.6201959
249	0x3fd0e7dc	1.6320758
250	0x3f9c7d44	1.2225728
251	0xbe1011d2	-0.14069298
252	0x3f96b7e9	1.1774875
253	0x3fcd8b6d	1.6058174
254	0x40037764	2.054162
255	0x3f994814	1.1975121

sequential/dense_1/MatMul f4 [13, 16]
0	0x3dd1e7ca	0.102492884
1	0xc1d0f702	-26.12061
2	0xc089fca5	-4.3120904
3	0x3cb19a50	0.021680027
4	0xbe9ad16a	-0.30237895
5	0x3fbdd312	1.4830039
6	0xc0170026	-2.359384
7	0xc0ca2711	-6.317269
8	0x3e2d47c8	0.16921914
9	0xc1bb04d1	-23.377352
10	0xbe4dcf1b	-0.20098536
11	0x3fde45d6	1.7365062
12	0x3e9ee7be	0.3103618
13	0x3f093518	0.5359664
14	0xbeeabd06	-0.45847338
15	0xc0d62fad	-6.69332
16	0x3eb3853a	0.3506258
17	0x3fa42b7b	1.2825769
18	0x3f4d0860	0.80090904
19	0xbec64772	-0.38726383
20	0xc085fd13	-4.187143
21	0xbf52c874	-0.8233712
22	0x3f2da74b	0.67833394
23	0xc11c7c16	-9.780294
24	0xc06020b9	-3.5019972
25	0x3f94ba68	1.1619387
26	0x3edeb4d1	0.43497327
27	0xc159edaf	-13.620528
28	0xbec0163c	-0.37516963
29	0x3df61de7	0.12017422
30	0xc03d6436	-2.9592414
31	0xc1901d89	-18.014421
32	0x3e82f693	0.25578746
33	0xc1c0d3db	-24.103445
34	0xc1c675d0	-24.807526
35	0x3e9c86dc	0.3057164
36	0x3f654173	0.8955299
37	0x3f176fcb	0.5915496
38	0xc1bef3d7	-23.869062
39	0x3f2d2a8c	0.67643046
40	0x3f29f788	0.6639333
41	0xc1da09d5	-27.2548
42	0x3ea86d84	0.32896054
43	0x3fcc34c0	1.5953598
44	0xbe66196a	-0.22470632
45	0xc013deaf	-2.3104665
46	0x3f228af2	0.63493264
47	0xc0185559	-2.3802092
48	0xbea69ac0	-0.3253994
49	0x404d6f76	3.209928
50	0xbfa222a4	-1.2666821
51	0x3e911ab0	0.28340673
52	0x3f89642d	1.0733696
53	0xc1b26b38	-22.302353
54	0xc00303d2	-2.0471082
55	0x400f2756	2.2367759
56	0x3eb36556	0.3503825
57	0x405af6c3	3.4213111
58	0xbcd6434b	-0.026155135
59	0xc13dd6b9	-11.864923
60	0xbe273ce0	-0.16331816
61	0xc14871a7	-12.527747
62	0x3f5fb2b5	0.8738206
63	0xc0c76a7d	-6.231749
64	0xbecdf968	-0.40229344
65	0xc15a4f45	-13.644353
66	0xc18d634a	-17.673481
67	0xbea97ac8	-0.33101487
68	0x3fc853de	1.5650594
69	0xc206199c	-33.52501
70	0xc1a6419c	-20.782036
71	0x4001e6bf	2.0297086
72	0x3f8d9f54	1.1064248
73	0xc137fb93	-11.4989195
74	0xbe004779	-0.12527265
75	0x4005624d	2.0841248
76	0xbe00ff02	-0.12597278
77	0xc1e1f3fb	-28.244131
78	0x3f9cf024	1.2260785
79	0xbed63d19	-0.4184349
80	0xbe8d7855	-0.2763087
81	0x3ebd30af	0.36951205
82	0xc19d728b	-19.68093
83	0x3e16a6cc	0.14712065
84	0x3f5ba173	0.85793227
85	0xc050c960	-3.262291
86	0xc193e318	-18.485886
87	0x3f978913	1.1838707
88	0x3ee0b270	0.43886137
89	0x3e258aa1	0.16166164
90	0xbed85355	-0.42251077
91	0xbe886fb1	-0.26647714
92	0x3d08be10	0.033384383
93	0xc1a0b8f0	-20.090302
94	0x3f234ce4	0.637892
95	0xc0150092	-2.3281598
96	0x3d6c89f2	0.057748742
97	0xbfa282f0	-1.2696209
98	0x3f81075d	1.0080372
99	0x3e800680	0.2500496
100	0xc1c296f6	-24.323711
101	0x3f89790a	1.0740063
102	0x3f7edece	0.9955872
103	0xc1ac3bf1	-21.529268
104	0xc1ea135f	-29.259459
105	0xc03bb5af	-2.932964
106	0x3d317686	0.043325923
107	0xbf67c05a	-0.9052788
108	0x3eb71d4c	0.3576454
109	0x3f6d3d4a	0.92671645
110	0xc1c7d2de	-24.977962
111	0x3f14057e	0.5782088
112	0x3be2e71f	0.0069245244
113	0x3ff84d68	1.9398623
114	0x3faeace8	1.3646517
115	0x3dab37b8	0.08360237
116	0xc198c55d	-19.096369
117	0xbdab4831	-0.08363379
118	0x3f9dc06f	1.2324351
119	0xc1c98def	-25.194304
120	0xc1d83ac6	-27.028698
121	0x3ffc1769	1.9694644
122	0xbc05f0c4	-0.008175079
123	0xc2147cba	-37.121803
124	0xbe040bea	-0.1289517
125	0x3f62b6cf	0.88560194
126	0xc1e818d1	-29.012117
127	0x4038a05b	2.8847873
128	0xbcef69f0	-0.02922532
129	0xc0a51ba4	-5.159624
130	0x3db97aa6	0.090565965
131	0x3e886100	0.26636505
132	0xc009d86e	-2.1538348
133	0x3f2bd456	0.67120874
134	0x3e63ca95	0.22245248
135	0xc10868ad	-8.525556
136	0xbf793dbd	-0.9735983
137	0xc19ed873	-19.855688
138	0x3ebfa146	0.3742773
139	0xbc18a8bf	-0.009317576
140	0xbe87e57b	-0.26542267
141	0x3ec1f176	0.37879533
142	0xbfe1a5cc	-1.7628722
143	0xc16011db	-14.004359
144	0xbb339e9c	-0.002740777
145	0x40230e70	2.5477562
146	0x3f721177	0.945579
147	0xbea962a9	-0.33083084
148	0xc1bbf4ad	-23.49447
149	0xc10254eb	-8.145732
150	0x3f49f35a	0.7888695
151	0x3e1f5a59	0.15561809
152	0xc1b47dbc	-22.561394
153	0x40384f57	2.8798425
154	0x3e6663d4	0.22499019
155	0xc1ac9722	-21.573795
156	0xbcc4bae0	-0.02401489
157	0xbe36df90	-0.1785872
158	0xc1018ad2	-8.096392
159	0xbfffe6da	-1.9992325
160	0x3e4989e4	0.19681507
161	0x40515141	3.2705843
162	0x3e91599b	0.28388676
163	0xbe462bdc	-0.19352669
164	0x3f51c353	0.81938666
165	0xc148c73b	-12.54864
166	0x3bcd03d8	0.0062565617
167	0x4009cc9d	2.1531136
168	0xbdde2fd0	-0.10848963
169	0x406478b6	3.5698676
170	0xbecd2632	-0.40068203
171	0xc0ea0d00	-7.314087
172	0xbd72ba28	-0.059259564
173	0xc083823c	-4.1096478
174	0x3f3a1b5d	0.72698003
175	0xc06a6c03	-3.6628425
176	0xbe1bbc2c	-0.152085
177	0xc1b79293	-22.94657
178	0x3e0e3aac	0.13889569
179	0x3ee263e8	0.44216847
180	0xc194145e	-18.509945
181	0x3fd93dd7	1.6971997
182	0x3f009be9	0.502379
183	0xc1b5b1a4	-22.711739
184	0xc05a95f3	-3.4154022
185	0xc1ae2b4b	-21.77114
186	0xbd458afb	-0.048228245
187	0x3fdd863e	1.7306592
188	0x3e92a406	0.28640765
189	0x3f8458c3	1.0339588
190	0xc164c719	-14.298608
191	0xc18926d5	-17.14396
192	0x3e6c7909	0.23093046
193	0x3e3a25aa	0.1817843
194	0xbfa49bc8	-1.2860041
195	0xbd400630	-0.0468809
196	0x3ef3af38	0.4759462
197	0xbfa94786	-1.3224952
198	0xbf9be769	-1.2179996
199	0x3f352ccb	0.70771474
200	0x3dd23dca	0.102656916
201	0xbc28284c	-0.010263514
202	0xbe9d07cd	-0.30670014
203	0xbf3702e9	-0.71488816
204	0xbcacc680	-0.021090746
205	0xbf9f9299	-1.2466613
206	0x3e9c18df	0.30487725
207	0xc0e11642	-7.033967
